poker_nn.pth (torch, 39570 bytes, 6 tensors)

network.0.weight f4 [128, 5]
00000000: 4ceb 333e ce00 9abe b2af e33e c2e7 843e
00000010: f018 803e 68bb b4be 3736 60be 28d9 bf3e
00000020: 9f9f cbbe 5ff5 efbd cea2 50be 1b50 113e
00000030: 3369 e0bd a936 bdbe 99ed 7c3d 3e52 98be
00000040: e29e c93e a478 6f3e 6510 823c ab9f 6dbe
00000050: 87aa 8d3e f808 083c f8bd cf3e 2e6f 1cbe
00000060: 06bc c9be 8997 0abe f05f a6be 30e9 c3be
00000070: c459 b0bd bb51 393e 4c0a c9be bf7f bebe
00000080: f79c ca3e 6404 6fbe cda7 4ebc 8b59 1abe
00000090: 9abb 353e 91fa bfbd 8872 bdbe abe8 c93d
000000a0: 3f30 8cbd 7c83 ba3e dd66 c23e 3984 0a3e
000000b0: 5e51 debe 8b2d ecbd c255 8b3c 8096 c3be
000000c0: 7dd6 3bbe 5265 d1be 8218 163e 8008 75be
000000d0: 09a2 ae3e b2b7 923e 95f2 f3bd d140 37be
000000e0: e64d 213e c1a8 dbbe 813f 81be 9cda c63e
000000f0: 606d 973e 1f1d c5bc 7728 32be 13f1 10be
00000100: cade 62be 5e92 973e 4c4d 9cbe c60c 283e
00000110: f89d e03e 2324 bebe 89ad c43e e103 a03e
00000120: c7a1 88be 0862 623e 3c74 83bd 8b8d 01be
00000130: ef7c 433d df71 c63d 47da 9e3e 0a09 ae3e
00000140: 1812 073e 62f1 d63c e93d 463e 0c95 fc3c
00000150: 3971 623e 7f80 51be 1dc3 133a 1b2e a43e
00000160: 44f2 6ebe acb7 bf3e 5cec 9cbe e366 afbe
00000170: f8a7 7c3e 3d60 d83e aeff 94be a63d 573e
00000180: 004d c43d dec3 133e 68c3 b9bd d9d7 813e
00000190: b873 83be 2cd3 d3be 82c2 d4be 3144 7f3c
000001a0: 6c08 a83e 913d 93be 8416 fd3a c53d 90be
000001b0: d119 41bd 1ee5 2b3e 1d37 163e c710 0d3d
000001c0: b3dd 14bd 2126 7ebe 471f c3be 772c cb3e
000001d0: a260 ba3e ec4c e33e 1144 603e 0a91 41be
000001e0: f335 6e3e 9ef6 0dbe 9d63 7bbe cb46 b03e
000001f0: 0162 0dbd 683d e4be 26de 973e 4100 cfbe
00000200: 18a5 57be 82be cb3e 62fe 663c be57 cabc
00000210: ddcf d5be 4d6b a7bd 32cd 5a3e e16d cc3e
00000220: ea42 09bd 183a 8d3e d813 9f3e 31f1 84be
00000230: cbbf ce3e 2dbb 033e 7b65 843e 7095 afbc
00000240: 636e b9be 38cb 5f3e 3f8a b0be f0df 973e
00000250: 0688 b43e 768a 053d 88d9 eebd 9689 dd3e
00000260: b5ed 363e aa8a a53e 3161 333e 6144 1f3e
00000270: 4037 93be 7abe d13e 7830 933e 8627 d7bd
00000280: 07ee ddbe 5ee2 16be 4764 833e 3b62 6c3e
00000290: 5803 e4be a964 25be cf9b 2d3d 2254 743d
000002a0: 9f29 293e 51d3 8dbe df6f 633e ad98 d3be
000002b0: f7c4 8a3e 0699 8e3e 31f0 2e3c 97b7 a6be
000002c0: 8a26 173e 052d 133d 4594 6fbe 7886 be3e
000002d0: f264 dd3d c20e 653d 3bf2 69bd eb32 a0be
000002e0: 095b 103e 634a 25be 55fb e4bd 378d da3e
000002f0: 39b9 a83e 2f03 6c3e 3ef7 ef3d 52f2 fc3d
00000300: 11cf 95be 5411 8d3e 589e f53d b448 db3e
00000310: 1eca 1b3e a1d4 e4be 7f2f bfbe 3619 b6be
00000320: bd21 3f3e 57c0 10be ffc6 a1bd f927 c9bd
00000330: d4b7 8ebe eb3a c13e cded a53e 19ea b83e
00000340: a0d2 c4be 9878 babe e258 7cbe 1f50 d23e
00000350: a6f7 abbe 264f 7f3d 2653 713e 3ae5 d43e
00000360: 744d b73c c4cd c2be 195b ac3c aa05 88be
00000370: 8be7 b73e f0fc 9ebd 2646 9c3e 3357 8a3e
00000380: 24bd cd3e a64b bf3e ad1c 103e a26c 41be
00000390: 57ac db3e 1eae 633e 48b6 bf3d 1b64 c6be
000003a0: c2b8 9bbd 5e42 643e 3160 82bd 2d65 b03e
000003b0: 6449 98be d990 1cbc fb22 6c3d ad59 a63e
000003c0: 1676 bb3e 0109 7fbe 2629 49bd e737 4f3e
000003d0: 4612 443e 2f61 653e f59e 833e 3cf1 94be
000003e0: 8b33 c03e a485 b0be f8d8 b03e 10b5 813e
000003f0: e68c a0be c1dd 52bd cfab 623e 9ca6 a63e
0.17570227 -0.3007874 0.44469982 0.25958067 0.25019026 -0.3529923 -0.21895681 0.37470365
-0.3977022 -0.11716723 -0.20374605 0.14190714 -0.10957565 -0.36955765 0.06175003 -0.29750246
0.3937903 0.23385864 0.015876958 -0.2320544 0.27669165 0.00830292 0.40574622 -0.15276787
-0.39401263 -0.13534369 -0.3249507 -0.38263845 -0.086108714 0.18097584 -0.39265668 -0.37206838
0.3957288 -0.23341519 -0.012613249 -0.1507322 0.17747346 -0.093739636 -0.37001443 0.09858831
-0.0684514 0.3642844 0.37969103 0.13527001 -0.43421453 -0.11532124 0.017008666 -0.3820076
-0.1834354 -0.40897614 0.14657786 -0.23929024 0.34107998 0.28655773 -0.11911503 -0.17895819
0.15752372 -0.42902187 -0.25243762 0.3883866 0.29575634 -0.024061738 -0.17398249 -0.14154463
-0.221553 0.29603857 -0.30527723 0.16411123 0.4387052 -0.37136945 0.38413647 0.3125296
-0.26685926 0.22107708 -0.06418654 -0.1265165 0.047726568 0.09689688 0.31025907 0.3399127
0.13190496 0.026238147 0.19359554 0.03083279 0.22113504 -0.20459174 0.0005636679 0.32066426
-0.23334605 0.37444818 -0.30649078 -0.34258184 0.2467345 0.42260924 -0.29101318 0.21019611
0.09584999 0.14430186 -0.09070474 0.2535999 -0.25674224 -0.4137205 -0.41554648 0.015580223
0.32818925 -0.2875791 0.0019309078 -0.28172126 -0.04714376 0.1678662 0.14669462 0.03443983
-0.03634424 -0.24819233 -0.381098 0.3968236 0.3640185 0.44394624 0.21900965 -0.18902984
0.23262767 -0.13863608 -0.24549718 0.3442901 -0.034517292 -0.445781 0.29661673 -0.4042988
-0.21059072 0.39793783 0.0140987355 -0.024700042 -0.4176015 -0.08174763 0.21367338 0.3992758
-0.03351108 0.27583385 0.31069827 -0.25965264 0.403807 0.1286437 0.25858673 -0.021433562
-0.3621703 0.21854866 -0.34480473 0.29663038 0.35260028 0.03260275 -0.116625845 0.43269032
0.17864116 0.32332355 0.17517544 0.15553428 -0.2875309 0.40965635 0.28747916 -0.10505585
-0.43345663 -0.1473479 0.25662443 0.23084347 -0.445338 -0.1615168 0.04238492 0.059650548
0.16519783 -0.27700284 0.22210644 -0.4132742 0.27103397 0.27851123 0.010677383 -0.32561943
0.14760795 0.035931606 -0.23396404 0.37211967 0.108102694 0.055922277 -0.057115775 -0.31288847
0.14097227 -0.16141658 -0.1118075 0.42685863 0.32953814 0.2304809 0.117170796 0.123509064
-0.29259542 0.27552283 0.11993092 0.42828906 0.1521382 -0.44693473 -0.37340924 -0.3556611
0.18665214 -0.14135872 -0.078992836 -0.09822077 -0.27874625 0.37740263 0.3240799 0.36116102
-0.38441944 -0.3642013 -0.24643281 0.41076753 -0.33587378 0.06233134 0.23566875 0.41581136
0.0223758 -0.38047612 0.021039532 -0.2656682 0.3591884 -0.07763088 0.3052227 0.27019653
0.40183365 0.37362403 0.14073439 -0.18889096 0.42904922 0.22234389 0.09360939 -0.3874825
-0.07603599 0.22290942 -0.06366003 0.3445219 -0.29743493 -0.009556019 0.057650547 0.32490292
0.3661353 -0.24905778 -0.049111508 0.20236169 0.19147596 0.22400354 0.25707212 -0.29090297
0.37539324 -0.3447696 0.34540534 0.25333452 -0.31357497 -0.051481012 0.22135852 0.32548988

network.0.bias f4 [128]
00000000: 87c2 a93e 3760 d2be 8767 94be 1579 113e
00000010: ab12 8b3e a877 37bd f75c 213e cf07 10be
00000020: 7b95 98be 0108 00be 30e5 ff3d 191a d8be
00000030: 6155 493e 8e37 b13d f869 a0be 73bc d13e
00000040: 0691 47be 2b57 d13d d280 c3be 5675 2fbe
00000050: 8a1e 22be c065 923e 662e c63e e67f da3e
00000060: dbd7 d43e dcbf 04be b20a 7ebe a67e 9a3e
00000070: d4c3 76be 25fb 8dbd e506 fe3c 75fe b6be
00000080: 3dfd df3e 8e4c 20be bfdb a6be 5679 7dbe
00000090: 9d7f 6f3e d8e1 373e 676b 923d 6bad a7be
000000a0: 4e57 debe 472c 663e 3805 d13d 8ce2 42be
000000b0: e440 323e d95f 9cbe 6a71 81be ac24 74bd
000000c0: 1274 9c3e d122 1bbe 4f85 d03e 48d3 d6be
000000d0: 8d17 933e 69d9 bf3e 2038 893e 0a89 363e
000000e0: 6f52 05be 0ac0 393e 5f3a 6b3e fdd1 1d3e
000000f0: 716b a83d c6c4 bfbe ae2c a1be 10fe c8be
00000100: f025 613e 17e0 e9bd f018 dd3e e610 cf3d
00000110: 4eac e2be a44b d6be d8dc d13e c2b1 0c3e
00000120: ebd8 243d a0b3 dd3e a405 b4be 999c a2bd
00000130: 674f 87be 6db1 dabe cd97 4ebe a1e9 c83e
00000140: 269e 8bbe f15f 473e 3ae0 c63e f1a3 db3e
00000150: f4b3 32be c827 e13e 71e8 c83d 442d a0be
00000160: 2c49 c1be 30f9 e93d 1795 abbe 90d4 4c3e
00000170: d056 d5bd 3d1d 50be 5f31 b9be cf97 afbe
00000180: e76c 9dbe 9cf6 a0be c4af c8be 3eb2 cf3e
00000190: eca4 113d 2b85 8ebd d078 d73e c500 b33e
000001a0: b378 adbd 0342 a43d 018b b33e f099 3fbe
000001b0: e180 643d 5e6f a7be 8c56 afbe 0bf5 173d
000001c0: 0f0f 62bd 0abb e13c 6b10 003e 1dbd a6bd
000001d0: 6fde b33e e05d 22bd 7bad a93e fb4b 443e
000001e0: fab2 703e 7d57 02be d0d5 30bd 92a9 4abe
000001f0: a9ee c0bd 0f30 dcbd bc09 d9bd 2eee bd3d
0.33156225 -0.4108903 -0.28985235 0.14206345 0.2716268 -0.044791847 0.1575812 -0.14065479
-0.29801545 -0.12503053 0.12494886 -0.4220741 0.19661476 0.08653174 -0.31330848 0.40964088
-0.19488916 0.10221704 -0.3818422 -0.17134604 -0.15831962 0.28593254 0.38707274 0.42675704
0.41570935 -0.12963814 -0.24808767 0.3017475 -0.2409814 -0.06932668 0.031009147 -0.3574101
0.43747893 -0.15654203 -0.32589528 -0.24753317 0.23388524 0.17957246 0.071493916 -0.32749495
-0.43425983 0.22477828 0.102060735 -0.19031733 0.17407566 -0.30541876 -0.2528184 -0.059605286
0.30557305 -0.1515 0.40726706 -0.4195807 0.28728905 0.37470558 0.26800632 0.17825714
-0.13019727 0.18139663 0.22971486 0.15412135 0.08223618 -0.37454814 -0.314794 -0.39256334
0.21987128 -0.11419695 0.43183088 0.10110645 -0.44272083 -0.41854584 0.40988803 0.13739684
0.04024593 0.43301105 -0.35160553 -0.07940025 -0.26427767 -0.4271349 -0.20175095 0.39240745
-0.27269095 0.19470192 0.38842946 0.42898515 -0.17451459 0.43975663 0.0980996 -0.31284535
-0.37751138 0.11424482 -0.33512184 0.20002961 -0.10416949 -0.20323654 -0.3617048 -0.34295508
-0.30747148 -0.31438148 -0.391966 0.40565675 0.035557672 -0.069589935 0.4208436 0.34961525
-0.08470287 0.08020403 0.3506699 -0.18711066 0.05578697 -0.32702154 -0.34245718 0.037098926
-0.055190142 0.027555007 0.12506263 -0.08141539 0.3513064 -0.039640307 0.33140168 0.19169609
0.23505774 -0.12728687 -0.043172657 -0.19791248 -0.09420521 -0.10751354 -0.1059756 0.09273945

network.2.weight f4 [64, 128]
00000000: 316b 07bd 5480 d9bc 9458 963d 2261 873d
00000010: f6ba f03c df9d 89bd 1847 a3bc 0c59 23bd
00000020: 43e7 edbc d8a3 e4bc e598 8e3d 8f9b a93c
00000030: dbce 8cbd 4eb2 83bd b4cf ccbc 827c 28bd
00000040: 0a18 64bd a962 be3c dd6a b0bd 44e7 20bc
00000050: 5dbd 54bb 1770 abbd 1e2e a8bd f6fd c63c
00000060: 7666 ab3d bbe3 6abd 4e9e 903d 8e2d af3d
00000070: 8036 c83c 1d89 8b3c 552d 653d 4e33 3e3d
00000080: 1d14 91bd dcb5 4a3a 4514 40bd 45d4 0cbd
00000090: 4d16 1f3d 63d4 4abd d6bf 373c e44c b1bd
000000a0: 842a aabd fe75 3a3c 4c2d 9f3d a05d 07bc
000000b0: 9e7e ca3b 7e41 98bb 6abf 053d 9f04 ef3c
000000c0: 1347 9a3d f047 9ebc cb35 813d 69f6 64bd
000000d0: 6b21 a2bd d591 9d3c c0dc 8b3d 13e8 903d
000000e0: 29e6 cf3b 6262 71bd caa8 09bb 36d4 3d3d
000000f0: 91f2 66bd 32f1 3c3d 16f3 e83b 266f 5dbd
00000100: 86eb 87bd e83b 3dbd 4e1f 86bd fd18 18bd
00000110: 58a6 d33c a936 aabb a370 80bd d67a c63c
00000120: 4ee5 34bd 938c 3f3d 1184 3dbd 0491 993a
00000130: 6e34 0abd 5f94 8f3d 2a91 7fbd e7a5 e4bc
00000140: cf65 57bd 997f 84bd 2ced 54bd 4ea9 aabd
00000150: d4d1 773d 7d4d 47bd abbc 983d d58f 413c
00000160: 761e a6bd 12c7 8abd 42cd 07bb 4a91 92bd
00000170: 5682 7bbd d2fc 1a3c 2b8a cfbc de74 29bc
00000180: df6d 8ebb 9c47 8c3c 8e9f b03d c3fe debc
00000190: 1831 87bd 8b1e 32bd fad2 90bc a385 c73c
000001a0: bd59 b93c f4de 913d 28f1 c83c 9b7d a83d
000001b0: dd67 fbbc 83e5 6ebd 00be 8ebd e63d a2bd
000001c0: 9a6f f63c f550 25bc 441d 42bd 8759 673d
000001d0: 63a8 d5bc 7fd8 e53c a163 b2bc c41b 4abd
000001e0: 4dbc 74bd b67a 34bd d753 b4bc efbd 9a3d
000001f0: b2a6 a43d 9b6c 353d fceb ccbc 7adf 443c
00000200: d73b 84bd a77f 9e3d 9c87 09bd a200 8a3d
00000210: 109d 3abc 871b 80bd bcd7 cabc 9127 d8bc
00000220: a250 76bd d559 0ebd 494d ccbc fa8f 80bc
00000230: 3cf6 8fbd c9c2 d73c 0c45 103d 27e9 bcba
00000240: 0b0b 9ebd 730e ae3d f165 9a3c d959 76bd
00000250: f152 52bd b133 b43d a553 bc3c 539d 8c3c
00000260: 4a97 febc 86de aa3d f7ee 92bd 0748 613d
00000270: 9a6c 77bd ea27 f3bc 0882 91bb 9c80 b4bd
00000280: c850 a53d 1f6e 933d b093 583d b368 98bd
00000290: ac3a 60bd ae72 36bd ec79 e13b 1bdc 823d
000002a0: 84a4 efbc d656 a73d 6449 c0bc 5610 34bd
000002b0: 1ecf 003d 6142 5d3d ffba 33bc 0bfc 9f3d
000002c0: dc58 8e3c 1b6d 22bd 78f6 7f3d ca88 68bd
000002d0: 7ed0 1f3b bbe4 ab3d 3760 afbd 1f74 f8bc
000002e0: 5bde 58bd 1e3a 95bd 8740 36bd c2de e839
000002f0: 679c c6bc 0614 8c3d 595b 4a3c ff2b a8bd
00000300: c6c0 22bd 9596 263d cad7 88bd c0c2 af3c
00000310: 0424 2fbd de68 933d af9d 55bd ad25 4cbd
00000320: a82a ffbc c3be 1a3d a7d9 753d 3f48 59bc
00000330: 300a 69bd b359 85bd 58f1 4abc 5dae 23bd
00000340: 47d8 e1bc 2ad6 613d 3cfc 913d a43c 8abd
00000350: d1e8 aa3d 52a6 8c3b 5d38 a5bc 24be 383d
00000360: a7e2 ad3d 6127 1b3c d709 803d c0b0 383d
00000370: 0597 33bb 0581 88bd ed2e acbd e733 123d
00000380: f95b b83c 3f54 48bd ec91 21bd 1ff3 c43c
00000390: 7acc 7c3d a143 2c3d b106 ad3c fa1e ad3c
000003a0: c8fd 3ebb 766c b3bd f155 cd3c 7d3e 463d
000003b0: 76db 8d3d 384c 2b3d a74b 5cbb a6fd 7fbd
000003c0: 2275 4b3d d203 bebb a6e9 1f3d b1d1 4ebd
000003d0: fb61 7cbc f570 573c 377e c2bc 2063 033d
000003e0: ba7b 9a3d fa56 04bd e8e6 30bd df9f 8a3d
000003f0: 7973 623d e2b1 f8bc 293c 243d 47a8 4fbd
-0.03306121 -0.02655045 0.07341114 0.066103235 0.029386025 -0.06719565 -0.019931361 -0.039879844
-0.029040938 -0.027910158 0.06962756 0.020704059 -0.06875392 -0.06430493 -0.025001384 -0.041134365
-0.055686988 0.023240404 -0.086141326 -0.009820763 -0.0032461502 -0.08370989 -0.08211921 0.02429102
0.08369152 -0.057346087 0.07061444 0.08553611 0.02444005 0.017033154 0.055951435 0.046435647
-0.070839144 0.00077327876 -0.04689433 -0.034382124 0.038839627 -0.049518954 0.011215171 -0.08657244
-0.083088905 0.011380671 0.077723116 -0.008262068 0.0061796447 -0.004646479 0.03265325 0.029177008
0.075330876 -0.019321412 0.06309088 -0.055899058 -0.0791653 0.019234577 0.06829214 0.07075515
0.006344576 -0.058931716 -0.0021005147 0.04634496 -0.056383673 0.04612846 0.007109056 -0.054061078
-0.066367194 -0.04619971 -0.0654894 -0.037133206 0.025836155 -0.0051945043 -0.06271484 0.024228495
-0.044163994 0.04676492 -0.046268526 0.0011716192 -0.033741407 0.070107214 -0.0623943 -0.02791114
-0.052587327 -0.0646965 -0.051983997 -0.083330736 0.060502842 -0.048657883 0.074578606 0.011814077
-0.08111279 -0.06776251 -0.0020721708 -0.07156618 -0.061403595 0.009459691 -0.025334438 -0.010342805
-0.0043465937 0.01712399 0.08624183 -0.02722109 -0.06601161 -0.04348616 -0.017678726 0.024355715
0.022625798 0.07122603 0.024529055 0.08227082 -0.030689174 -0.05832435 -0.069698334 -0.079219624
0.030082513 -0.010090102 -0.04739119 0.056481864 -0.02608127 0.028057335 -0.021776022 -0.049342886
-0.05974989 -0.04406234 -0.022012634 0.07555758 0.08039607 0.044293027 -0.02501487 0.012016172
-0.06456726 0.077391915 -0.033576593 0.06738402 -0.011389986 -0.062552504 -0.024761073 -0.026386054
-0.06013549 -0.03475364 -0.024939196 -0.015693653 -0.07029387 0.026337998 0.0352221 -0.0014412747
-0.0771695 0.0849885 0.018847438 -0.06014428 -0.05134863 0.08798922 0.022989104 0.017164862
-0.031078 0.08343224 -0.07174485 0.05500033 -0.060406305 -0.029682118 -0.0044405498 -0.08813593
0.080720484 0.07198738 0.05287522 -0.07441845 -0.054743454 -0.04454296 0.0068809893 0.06389638
-0.029253252 0.081708595 -0.023472495 -0.04396089 0.031447522 0.054018382 -0.010969876 0.07811745
0.017376356 -0.039654832 0.06249091 -0.056771077 0.0024385746 0.08393236 -0.085632734 -0.030328808
-0.05294643 -0.072864756 -0.04449513 0.00044416456 -0.0242445 0.06839757 0.012350881 -0.082115166
-0.039734624 0.04067095 -0.066817835 0.021455169 -0.042758957 0.07197736 -0.052152332 -0.049840618
-0.03114827 0.03777958 0.060022023 -0.013261854 -0.05689448 -0.065112494 -0.012386642 -0.039961208
-0.02756895 0.055135883 0.07128188 -0.067498475 0.083451875 0.004292288 -0.020168478 0.045103207
0.08490496 0.009469838 0.06251877 0.045090437 -0.0027403247 -0.066652335 -0.08407388 0.03569403
0.022504793 -0.04890847 -0.039445803 0.02404171 0.06171844 0.042056683 0.021121355 0.021132935
-0.0029142965 -0.08760922 0.025065394 0.048399437 0.069266245 0.041820735 -0.0033614428 -0.062497757
0.049672253 -0.0057987953 0.039041184 -0.050492946 -0.01540422 0.01314949 -0.023741825 0.032076955
0.0754313 -0.03230951 -0.04318896 0.06768774 0.055285905 -0.030358259 0.040096436 -0.05069759

network.2.bias f4 [64]
00000000: 0e9a 8f3d b75e 293d 1894 b0bd 4ab3 88bd
00000010: 8cee 5bbd 47be 44bd 05d6 7d3d 388b 9a3d
00000020: 96ce 933c 1950 143c 569d 733d f5a3 e43c
00000030: 8f6c 8ebd 2502 04bd 0fe7 243d 3a28 86bd
00000040: dce8 0fbd be97 863c 62c7 4c3d b8b8 1abc
00000050: a67c 59bd ce64 c63c bae7 6d3c 782a 2fbd
00000060: 8176 663d 34da 9d3d 7c14 703d de0e e839
00000070: 4eae 8abc 05d3 aaba e00f 333d 9730 353d
00000080: 2c3f 4dbd 73aa 08bc 5242 8d3d d2f9 54bb
00000090: 368f 703d 164e 0ebd d04b cfbc e604 733d
000000a0: 881b 333d aa27 243c 85c3 86bc f5d8 ffbc
000000b0: be58 b93c 6bb1 113d e92b acbd cdeb 9fbd
000000c0: c192 40bd efae 133d 0a85 823d 70ff 943c
000000d0: 9c56 4abd 281f 9bbd 9ee5 923d 0e5e acbd
000000e0: 8deb ba3c eb4b bfbc 6492 443d 41d0 0b3d
000000f0: 7ffb 963c bfde 64bd 2d02 a2bc 60e3 833b
0.070118055 0.041350093 -0.08621997 -0.06674822 -0.053694293 -0.048033025 0.061971683 0.07546085
0.018042844 0.0090523 0.05947622 0.027910212 -0.069543 -0.032228608 0.040259417 -0.06550641
-0.03513418 0.016429778 0.049994834 -0.009443454 -0.05309739 0.02421799 0.01452058 -0.04276511
0.056265358 0.077076346 0.058613285 0.00044261565 -0.016928818 -0.001303286 0.04371631 0.044235792
-0.050109074 -0.0083414195 0.06897415 -0.0032497537 0.058730327 -0.034742437 -0.025304705 0.059330843
0.043727428 0.010019222 -0.016450653 -0.031231383 0.022625323 0.03556959 -0.08406813 -0.07808647
-0.047014955 0.0360555 0.063730314 0.018188208 -0.049399003 -0.07574302 0.07172702 -0.08416377
0.022817397 -0.02335163 0.04799117 0.034134153 0.01843047 -0.05587649 -0.019776428 0.004024908

network.4.weight f4 [3, 64]
00000000: 00eb 3c3c dab6 c73d 6426 ff3d 9cfd f5bd
00000010: d07b 6d3d e475 bebd b064 91bd 74c7 0f3d
00000020: c8f0 ddbd 00fd b3bc 4884 db3d 205e c5bd
00000030: c471 fa3d 9c27 d23d d4ff 5b3d 4076 f0bb
00000040: 0a50 bc3d e210 cdbd c0b4 6a3b 96aa b13d
00000050: 1ac9 bf3d e2cc 81bd c842 8bbd 5826 f3bc
00000060: c4d8 193d 5a52 c63d c467 be3d 1862 9fbc
00000070: 9e71 c2bd d4e4 e9bd 3c5c 2b3d 16e9 d7bd
00000080: 6051 acbc 801d f6bc 8236 e63d d291 e93d
00000090: 1e69 f3bd 92d4 d13d 98c2 b9bd 7267 8ebd
000000a0: 22cf cb3d a86c 7dbd d07d d23c 9c79 113d
000000b0: f0b7 e2bc 66f4 b33d ac0d b4bd 581c 463d
000000c0: 40f8 3b3d 601b 6abd c85d bc3c f4c8 ecbd
000000d0: d0a9 9ebd 2053 5abc a4ee d5bd 6821 51bd
000000e0: 7c97 a7bd 2c6e 76bd 90aa a2bd 7072 ad3c
000000f0: 30b3 e43c b0d1 13bc c842 c03d 3ae7 c1bd
00000100: ba80 9d3d ec94 dc3d 4403 67bd 9c44 7e3d
00000110: f2e0 8b3d fe1d 81bd 74ab a73d 48c9 e33c
00000120: 082c 8d3d 6097 b63c cc0f 8dbd 8031 733c
00000130: bc89 f9bd 5827 613d dc41 503d d067 823c
00000140: 08e9 883d b0f8 2bbc 306d 8b3d 608d c63d
00000150: 1ed5 b0bd f4f5 92bd 9007 b6bc be88 9b3d
00000160: ccf2 60bd 3283 fbbd 4e52 ee3d 02b8 893d
00000170: 9019 443d ce85 9d3d 4e6e a8bd 587f 1e3d
00000180: e28a 99bd d82e 05bd 9051 263c 6049 93bc
00000190: f0c9 4f3d dca1 b6bd 981b c0bc ac3d 4e3d
000001a0: d28d e1bd dec2 f8bd a082 60bd b44e bcbd
000001b0: d893 e1bc de2c adbd d870 b43c 18d5 ec3d
000001c0: 2058 dabd 68ca 0b3d 2051 23bc 44be 5cbd
000001d0: 288f 563d 0078 3cba 88bd da3d a847 4b3d
000001e0: 44b3 2fbd a6af aabd 607a af3c 00c0 0f38
000001f0: a63a c43d b2e4 e23d c028 183d 40ee eebc
00000200: 4082 7b3c f42a fcbd e87f 6a3d 602f d73d
00000210: 2cbe 64bd ee05 d5bd 9c78 6b3d 529f 803d
00000220: c6ef a53d a48e aabd 0070 fdbd 228a c33d
00000230: d85a 20bd 68f2 a0bc f8db 16bd 0a29 f2bd
00000240: c8c6 ce3d 3084 a4bc 30b9 98bd 28a4 a4bc
00000250: d652 cdbd b4c8 56bd 265e dc3d e05d 5e3d
00000260: c071 f7bb 782f 2d3d 381a fabc a8f1 443d
00000270: 3e7d cebd dc4b 15bd 2caf 153d e843 893d
00000280: 0a3c ddbd ec63 a23d 06a8 f2bd b83b e9bd
00000290: e8b4 7e3d 3494 a33d b87a f8bd 081a 41bd
000002a0: 2ccf 763d 989a 6dbd 9800 a5bc 7a68 d1bd
000002b0: 34db da3d 0077 513b c62d 873d 3a5e c3bd
000002c0: 8cef 5cbd 284d 303d 7029 f9bd b8b7 753d
000002d0: ec1f 7bbd 9e8c c33d 2c7a 1cbd f8cd b9bd
000002e0: 383c 37bd 40fd 84bb 7674 fd3d d85c f3bc
000002f0: 6838 cbbd c028 d03d b8c5 8dbd d441 c6bd
0.011530638 0.09751673 0.12458494 -0.12011263 0.057979405 -0.092998296 -0.07099283 0.035102323
-0.10836941 -0.021971226 0.1071859 -0.096370935 0.1222873 0.10261461 0.053710774 -0.0073383152
0.09194954 -0.10012986 0.0035813302 0.08675115 0.09364529 -0.063379064 -0.06799847 -0.02968137
0.03756024 0.09683676 0.092971355 -0.019455954 -0.09494327 -0.114205986 0.04183601 -0.105425045
-0.021034896 -0.030043364 0.11240865 0.11404766 -0.11885284 0.10245623 -0.09070319 -0.069533244
0.09951617 -0.0618712 0.025694758 0.035516366 -0.027675599 0.0878685 -0.0879167 0.048366874
0.045891047 -0.057155013 0.022993937 -0.11561766 -0.07747233 -0.013325483 -0.10445908 -0.05105725
-0.0818319 -0.06016366 -0.079426885 0.021172732 0.027917475 -0.009022161 0.093877375 -0.09467931
0.07690568 0.10770592 -0.0563996 0.06207715 0.06830014 -0.06304549 0.08186999 0.02780594
0.06893164 0.022288978 -0.06887779 0.014843345 -0.12184474 0.05496916 0.05084406 0.015918642
0.06685072 -0.010496303 0.06807935 0.09694934 -0.08634399 -0.07175818 -0.022220403 0.07594441
-0.05491905 -0.12280883 0.11636792 0.0672455 0.04787594 0.07691537 -0.08224164 0.038695663
-0.07497193 -0.032515377 0.010151282 -0.017979324 0.050729692 -0.08917591 -0.023450658 0.050351784
-0.11013378 -0.12146543 -0.054812074 -0.09194699 -0.027536318 -0.08455823 0.022026464 0.11564082
-0.1066134 0.034128577 -0.009968072 -0.05389239 0.05238262 -0.0007189512 0.106806815 0.049628884
-0.04289557 -0.083342835 0.021420658 3.427267e-05 0.09581499 0.110787764 0.037148237 -0.02916634
0.015350878 -0.1231288 0.057250887 0.10507083 -0.055845425 -0.104015216 0.05748807 0.06280388
0.08102374 -0.08327988 -0.12374878 0.09547831 -0.039149135 -0.019646838 -0.036830872 -0.11824234
0.10096508 -0.020082563 -0.07457197 -0.020097807 -0.10025565 -0.0524375 0.10760145 0.054288745
-0.007551402 0.042281598 -0.03053008 0.048082024 -0.10082482 -0.0364493 0.03654401 0.06702405
-0.10802467 0.07929215 -0.11848454 -0.113883436 0.062184244 0.07987252 -0.12132782 -0.047143966
0.06025617 -0.05800876 -0.020141885 -0.102250054 0.10686341 0.0031961799 0.066005275 -0.09539457
-0.053939387 0.043042332 -0.12166107 0.05998966 -0.06130974 0.09548305 -0.03820245 -0.090724885
-0.044735163 -0.00405851 0.12375729 -0.029707357 -0.09922868 0.101640224 -0.069224775 -0.096805245

network.4.bias f4 [3]
00000000: 503c d6bd b610 b63d c289 9e3d
-0.104607224 0.08889906 0.07741119
